…
tput_len': 30, 'h_dim': 256, 'embedding_dim': 16, 'num_layers': 1, 'bidirectional': False, 'mlp_dim': [64], 'dropout': 0.5}}, 'discriminator': {'encoder': {'num_layers': 1, 'hidden_dim': 64, 'emb_dim': 16, 'mlp_config': {'dim_list': [2, 16], 'activation': 'relu', 'batch_norm': True, 'dropout': 0.5}, 'dropout': 0}, 'classifier': {'mlp_config': {'dim_list': [64, 1024, 1], 'activation': 'relu', 'batch_norm': True, 'dropout': 0.5}}}}, 'base_dir': '/home/robesafe/mapfe4mp'}
Initializing train dataset
Initializing val dataset
Generator model:
TrajectoryGenerator(
  (encoder): EncoderLSTM(
    (conv1): Conv1d(2, 16, kernel_size=(3,), stride=(1,), padding=(1,), padding_mode=reflect)
    (conv2): Conv1d(16, 16, kernel_size=(3,), stride=(1,), padding=(1,), padding_mode=reflect)
    (encoder): LSTM(34, 256, num_layers=2, dropout=0.5, bidirectional=True)
  )
  (lne): LayerNorm((256,), eps=1e-05, elementwise_affine=True)
  (sattn): MultiHeadAttention(
    (attention): DotProductAttention(
      (dropout): Dropout(p=0.5, inplace=False)
    )
    (W_q): Linear(in_features=256, out_features=256, bias=False)
    (W_k): Linear(in_features=256, out_features=256, bias=False)
    (W_v): Linear(in_features=256, out_features=256, bias=False)
    (W_o): Linear(in_features=256, out_features=256, bias=False)
  )
  (lnd): LayerNorm((512,), eps=1e-05, elementwise_affine=True)
  (mlp_decoder_context): Sequential(
    (0): Linear(in_features=512, out_features=64, bias=True)
    (1): LeakyReLU(negative_slope=0.01)
    (2): Linear(in_features=64, out_features=256, bias=True)
    (3): LeakyReLU(negative_slope=0.01)
  )
  (decoder): TemporalDecoderLSTM(
    (hidden2pos): Linear(in_features=256, out_features=2, bias=True)
    (spatial_embedding): Linear(in_features=40, out_features=16, bias=True)
    (ln1): LayerNorm((40,), eps=1e-05, elementwise_affine=True)
    (ln2): LayerNorm((256,), eps=1e-05, elementwise_affine=True)
    (decoder): LSTM(16, 256, dropout=0.5)
  )
)
Optimizer:
Adam (
Parameter Group 0
    amsgrad: False
    betas: (0.9, 0.999)
    eps: 1e-08
    lr: 0.001
    weight_decay: 0
)
Starting epoch 1
